minibatch_reinforce_policy.pth (torch, 6299 bytes, 4 tensors)

fc1.weight f4 [128, 4]
000000 99 99 81 be e2 27 9f 3e 6c ae 84 3f 49 c6 2f 3f
       -0.25312498 0.31085116 1.0365729 0.68661934
000010 78 aa a0 3c 5d 60 c1 3e 9d ee d2 ba 21 75 35 3e
       0.019612536 0.37768832 -0.0016092841 0.17720462
000020 44 ed c7 3e 73 70 6f be 3a 67 09 3f 18 a5 bc 3e
       0.39048207 -0.2338274 0.53673136 0.36844707
000030 14 f0 2c 3e b7 83 b4 3d b7 b4 1a 3d 28 6e 2e 3d
       0.16888458 0.08814185 0.03777 0.042585522
000040 2e 99 00 bf e5 a2 94 be 00 0d 80 bf 20 5c 98 be
       -0.50233734 -0.2903053 -1.0003967 -0.29757786
000050 e1 0c 88 be ce 50 d9 3d 1a ac da be a5 b7 9b be
       -0.26572326 0.106111154 -0.42709428 -0.30413547
000060 4f c9 21 3f 99 39 f6 3e 95 a2 10 3f e1 f3 8f bd
       0.631978 0.4809082 0.5649808 -0.07028938
000070 77 2e 55 3e d3 dd 0f 3f db 75 31 3f 2b 3c 0a 3f
       0.20818506 0.5619785 0.6932046 0.5399806
000080 24 66 22 3d 2f 81 a9 be 71 30 c7 3e 3a d3 af 3e
       0.03964819 -0.33106372 0.38904145 0.3434084
000090 76 1e fd bd 4e 33 c5 be d9 cb 4c bf b2 14 0d bf
       -0.123593256 -0.38515705 -0.79998547 -0.55109704
0000a0 2b 5a 0d 3e 32 0a b9 3d 43 2b 19 3e fd 69 11 bd
       0.13803928 0.09035148 0.1495791 -0.03550147
0000b0 5d 57 82 be 7e 94 98 3e 2a 5a 7b 3f db b1 0d 3f
       -0.25457278 0.2980079 0.98184454 0.5534951
0000c0 4e 3f d7 3e 8c 65 80 bd 57 71 ac 3e d0 36 2c be
       0.42040485 -0.062693685 0.3368022 -0.16817784
0000d0 08 ac 01 bf e2 71 1f bf 65 cd cd be af 8b f1 be
       -0.50653124 -0.62283146 -0.40195766 -0.47176883
0000e0 10 cc 82 3d f0 e5 6b 3e a5 2b 83 3f 89 90 90 3e
       0.06386578 0.23036933 1.0247694 0.28235272
0000f0 33 e4 27 3e 44 19 06 be cb 28 6f bf 0a f9 07 bf
       0.16395645 -0.13095576 -0.9342162 -0.5311438
000100 f1 15 0d be 03 9d 3a 3e 39 7a 16 3e 5b 70 0f 3d
       -0.13777901 0.18223958 0.14695062 0.03501926
000110 c9 22 69 bc db a3 da 3d ed fc 73 3d be 67 64 3b
       -0.014229485 0.10675784 0.05956738 0.0034851874
000120 bd 53 82 be ba a4 d3 3b ef eb 84 3f f5 1a 36 3f
       -0.25454512 0.006458846 1.0384501 0.71134883
000130 c7 79 66 be ca a5 49 3e 9b 94 a1 bd c2 f1 bc 3e
       -0.22507392 0.1969215 -0.07889672 0.36903197
000140 d2 fc c0 3e 76 03 c4 be 3a 66 e6 be 34 dd 70 be
       0.37692887 -0.3828389 -0.44999868 -0.23521882
000150 9c ba ea 3e 36 c7 a7 be 67 fb 25 3c 06 4d 23 3f
       0.45845497 -0.32769173 0.01013074 0.63789403
000160 85 62 53 3e 07 1b e7 3e e2 97 88 be 1d ea 01 bf
       0.20643051 0.45137808 -0.26678377 -0.50747854
000170 3c 38 96 be 3e b1 1e be 14 56 7b be ba 2c a2 bc
       -0.29339778 -0.154973 -0.24544555 -0.019796718
000180 3c 7d d6 3e c5 c7 b8 3d 8a d1 ce 3d dc 08 d5 bd
       0.4189242 0.09022478 0.1009856 -0.104020804
000190 8b de d6 be 56 64 09 be 52 10 eb bd eb 82 c6 3c
       -0.41966662 -0.13417181 -0.11477722 0.024232348
0001a0 49 46 42 be ec 99 aa 3a af 87 ab bd f5 59 a1 bd
       -0.18972124 0.0013015843 -0.08375489 -0.07878486
0001b0 d9 75 16 3e 09 6e fd 3e c2 7d 40 3f 19 32 5d 3e
       0.14693393 0.49498013 0.7519189 0.21601142
0001c0 03 75 43 3d 63 b3 07 be 22 8a 83 3d 48 54 ea be
       0.047719013 -0.13252024 0.06422831 -0.45767426
0001d0 93 ce c1 be 18 9d 6f 3e 17 94 6b bf 7e a1 23 bf
       -0.37852916 0.2339977 -0.9202284 -0.6391829
0001e0 79 50 11 bf b8 7b 9c be ed b8 f4 be 50 e8 1d bf
       -0.56763417 -0.3056314 -0.47797337 -0.61682606
0001f0 a1 a9 ab 3e ec 53 41 be db 3a 7c 3f ff c5 a0 3e
       0.33527854 -0.1887967 0.98527306 0.3140106
000200 3c 65 92 be 70 15 06 bf 3c c9 09 bf eb da e5 be
       -0.2859286 -0.5237646 -0.53822684 -0.44893584
000210 4f a0 c3 3e 5d cd e6 3d 9e 58 8a be d6 0e a3 be
       0.38208243 0.11269639 -0.27020735 -0.31847256
000220 e1 18 f1 be f0 52 93 3e 55 c4 70 bf d9 3b ae be
       -0.47089294 0.28774214 -0.9404958 -0.34030035
000230 50 4a 3d bc 48 c2 82 be 0b 1b 99 3e 5f 81 b8 be
       -0.011553362 -0.2553885 0.29903445 -0.36036202
000240 83 29 99 be 05 2e 95 3e dd fa 07 3f de c5 98 3c
       -0.29914483 0.29136673 0.5311716 0.018649038
000250 c2 16 a5 be af e1 dc 3e 21 8f 77 3e 42 04 4e 3f
       -0.32243925 0.43140933 0.24175693 0.80475247
000260 90 8d ba be 04 99 32 3e ff d9 02 3e ab c2 3f 3e
       -0.3643613 0.17441183 0.12778471 0.18726604
000270 1a d3 71 be 2f d8 70 3e 69 c4 74 bf e1 40 cc be
       -0.23615685 0.23519967 -0.956122 -0.3989325
000280 86 56 a0 be 6c af 8c bc a9 aa 37 3f 7a ae 1b 3f
       -0.31316012 -0.017173491 0.7174478 0.60813105
000290 37 12 64 be de 99 9d be 43 da 44 bf 2f 89 1d be
       -0.22272573 -0.30781454 -0.7689554 -0.15384363
0002a0 b9 7d 22 3e eb 5c 18 3f 09 a8 ce 3d 2d 92 8b 3e
       0.15868272 0.5951678 0.10090644 0.2725996
0002b0 9c 61 5d 3e a6 74 bb bd 9e 81 9b 3d 5a 93 75 bd
       0.21619266 -0.09153108 0.07593082 -0.05995498
0002c0 5d cb 69 bd ff 09 65 bd 4b 39 9d bd 5f cc 6b be
       -0.057078708 -0.055917736 -0.076769434 -0.2302718
0002d0 2c 06 bc be 96 43 f5 3e f8 40 14 3f 65 55 20 be
       -0.3672346 0.47903126 0.57911634 -0.15657575
0002e0 a2 42 d7 bd d6 4e 23 be 9c ac f2 3e 73 3f 02 3e
       -0.10510756 -0.15948042 0.47397316 0.12719516
0002f0 b9 db 32 3e 3e 7a 39 3b 19 5f 8b 3f 6a b0 80 3e
       0.1746663 0.0028301622 1.0888397 0.25134593
000300 30 e3 ae be 80 23 92 3e 8f 94 10 3f 60 6b 10 3f
       -0.34157705 0.2854271 0.5647668 0.5641384
000310 c9 cb 27 3d b7 95 26 3e 88 05 c8 3e 91 57 c6 3e
       0.04096583 0.16268049 0.3906672 0.38738683
000320 14 0c ef 3d 26 34 92 be 4f ba bf 3e d2 5a a5 3e
       0.116722256 -0.2855541 0.3744683 0.32295853
000330 2a 4d 88 bd b6 25 36 3e 2e 4d 95 be 8f 69 d1 3b
       -0.06655343 0.17787823 -0.29160446 0.0063907574
000340 58 b5 f0 be a0 5c d0 be e9 e7 cf bd c1 0b c2 be
       -0.47013354 -0.40695667 -0.10151655 -0.37899593
000350 20 ce b0 3e 71 77 7b be 75 b7 20 bf cb fa 1e bf
       0.3453226 -0.24557282 -0.62779933 -0.6210143
000360 a3 da 01 be d5 16 25 3f 25 e8 d7 3e 35 eb d0 3e
       -0.1268106 0.64487964 0.421693 0.4080445
000370 78 7c 19 be e7 a3 7f be f4 d7 02 be 07 d4 f4 3d
       -0.14988887 -0.24964868 -0.12777692 0.119545035
000380 bf 2d c9 bd f7 15 0e bd c8 70 f4 bd e7 db b7 3e
       -0.098231785 -0.034688916 -0.11935574 0.3590996
000390 49 61 b3 3e 8a 1d 0b 3f 2a 7d 30 3f d2 3b 0c 3f
       0.3503516 0.5434195 0.68940985 0.5477878
0003a0 06 74 d7 bd e8 9d 68 3c 49 76 55 3f f3 49 5b 3f
       -0.105201766 0.014197804 0.83383614 0.8565971
0003b0 a3 85 ef 3d 87 5b df bd 80 65 c7 3e e8 d2 87 3e
       0.11695411 -0.10906129 0.38944626 0.26528096
0003c0 58 1c 8d 3e cf 03 3d 3e 04 88 d9 3e db d1 0c 3f
       0.27560687 0.18458484 0.42486584 0.55007714
0003d0 b0 f6 91 be f4 7b e8 be c3 5e 1e 3d e2 0f 4f 3c
       -0.2850852 -0.4540707 0.03866459 0.012638064
0003e0 f8 cb 93 3d f8 d3 45 3e 3a 54 94 bf 99 89 ff be
       0.07216638 0.19319141 -1.1588204 -0.49909666
0003f0 f8 f9 41 be bb a5 16 bd d1 ba 5d 3f 9f cd b6 3e
       -0.18943012 -0.036779147 0.86613184 0.3570375

fc1.bias f4 [128]
000000 6a 5c 8d 3e f0 03 12 bf 10 40 56 3e c7 a9 f7 be
       0.2760957 -0.5703726 0.20922875 -0.48371717
000010 e8 a5 27 3e b2 19 c8 3d 6f fb 9d be e6 d9 00 3f
       0.16371882 0.09770526 -0.3085589 0.50332487
000020 07 6a fd bd a8 76 ad 3d 9a 25 6b bd 82 08 6f 3e
       -0.12373739 0.084698975 -0.057408907 0.23343089
000030 63 3c 83 be 4d c6 13 bd ca 86 42 3e 95 14 03 3d
       -0.2563201 -0.036077786 0.1899673 0.03200205
000040 db 1e aa be d3 c8 57 be 6e 31 c3 3e bf 48 95 be
       -0.33226666 -0.21072702 0.3812365 -0.29157063
000050 cc 31 fd bb 8c d9 07 3e 52 53 62 be a2 6b 2b bd
       -0.0077268835 0.13266581 -0.22102097 -0.041850694
000060 95 d7 83 be e0 54 62 be c2 7e b1 be de 2f 83 3e
       -0.25750414 -0.2210269 -0.3466702 0.25622457
000070 cf f3 b1 bd a8 67 b4 3e 6d 58 2f 3e 91 27 7d 3e
       -0.08689081 0.35235333 0.17123576 0.24722125
000080 51 45 82 bc 67 de 70 3c 11 4b c2 3d 32 ca c1 be
       -0.015902193 0.014701462 0.09486974 -0.37849575
000090 6d 9f af be 6d 8c 81 3e f0 87 aa be ec 9e 30 3e
       -0.3430132 0.2530245 -0.33306837 0.17248124
0000a0 5a 9c b2 3e 06 6c 5e 3e c5 aa 57 3e d2 47 99 be
       0.34884912 0.21720895 0.21061237 -0.29937607
0000b0 ed 96 ac be 14 5d c9 be 64 19 c2 be 5f cd 60 3e
       -0.33708897 -0.39328825 -0.37909997 0.21953343
0000c0 ad ee 59 3e 02 fe a6 be c2 8a 2a bd 8a 6c d0 be
       0.21282454 -0.32615668 -0.041636236 -0.4070781
0000d0 1c 03 65 be 55 59 78 3c be 50 c0 3d e5 37 8e 3d
       -0.22364467 0.015158017 0.093904 0.06944255
0000e0 ab 68 17 bf a9 fd f1 3e 1c 6b dd 3e 2f 5d d6 be
       -0.59144086 0.4726384 0.4324578 -0.41867968
0000f0 59 d4 41 3e 63 d7 93 be f2 9e 5c 3e ea fd bf 3e
       0.1892866 -0.28875265 0.21545008 0.3749841
000100 99 c4 c1 3e 7e 1c 8a 3d 5d 9c bf 3e 4f 1f ce 3c
       0.37845305 0.06743716 0.37423983 0.025161413
000110 7c a4 ac 3e d1 1c 6d 3e 29 23 ac be 56 a5 09 bd
       0.33719242 0.23155524 -0.33620575 -0.033604942
000120 a9 cb 61 be 67 7f db be 57 e7 72 3e 3d 8e bf 3b
       -0.22050346 -0.42870638 0.23721062 0.0058458135
000130 9d 22 0d bf 0d d8 64 be 33 a0 bd bd 0d 02 8e be
       -0.5513094 -0.22348042 -0.09259071 -0.2773594
000140 3d 28 5e be f4 9a c7 3d 0e 89 ff 3d 34 87 c1 3e
       -0.21695037 0.09746352 0.12477313 0.37798464
000150 ce d3 f5 3c 60 5c 7a 3e 68 7b 09 bf 7e b8 99 3e
       0.030008223 0.24449301 -0.5370393 0.3002357
000160 4e a2 12 bf 49 d2 b7 3e f5 6a 13 bf 7f 75 96 be
       -0.5727891 0.35902622 -0.5758508 -0.29386517
000170 cf cd a3 be 91 18 82 3e 46 13 82 3e 44 dd 38 3d
       -0.31992957 0.25409368 0.2540533 0.04513289
000180 67 6d 5f 3e a8 d4 82 be 6d 2b 27 3e 6a 79 0d bf
       0.21819077 -0.2555287 0.1632516 -0.5526339
000190 39 27 26 3e 2a f7 df be 8c b5 a5 be 0d f3 87 bd
       0.162259 -0.4374326 -0.32365072 -0.06638155
0001a0 95 c7 7b be 20 ed 0c 3e 1a ce b5 3d db 4a 91 3e
       -0.24587853 0.13762331 0.088772014 0.28377423
0001b0 e6 7d 6b be 0a 66 d4 be 41 8d af be 81 a8 83 3d
       -0.22997245 -0.414841 -0.34287456 0.06428624
0001c0 34 96 10 3e 33 02 a8 be 21 58 cc bd 92 05 5d 3e
       0.14119798 -0.32814178 -0.09977747 0.21584156
0001d0 39 d5 81 3e 96 05 69 3e 55 da 6a 3e 3a ea 99 be
       0.25357988 0.22756037 0.2293485 -0.30061513
0001e0 84 cb e5 bd 39 25 c5 3e 41 a0 21 be 8c 09 95 3d
       -0.11220458 0.3850496 -0.15783788 0.072772115
0001f0 59 fe 9c 3d 36 a3 a9 be d5 2f 8b bc 11 87 e6 3d
       0.076657005 -0.33132333 -0.016990582 0.112562306

fc2.weight f4 [2, 128]
000000 ec ff 92 be 1a ca c1 3d 72 de 9c bd ee d5 a9 3c
       -0.28710878 0.09462376 -0.076596156 0.020731892
000010 a6 9b 91 3e 10 9f da 3d 4a e5 9e bd fd d1 6d be
       0.28439063 0.1067487 -0.07758577 -0.23224635
000020 38 c5 38 be e3 de a4 3e 5e 1b a0 3c 76 03 80 be
       -0.18043983 0.322013 0.0195443 -0.2500264
000030 9c 2d c5 bd 78 72 63 3e 60 a9 a0 be e1 fb 85 3e
       -0.0962784 0.22211635 -0.31379223 0.2616873
000040 42 e3 98 bd 4e 46 79 3c c9 b4 3d be 66 92 c4 3c
       -0.07465221 0.015214516 -0.18525995 0.02399559
000050 9f 0b a4 3d f3 89 0f be ce b4 db 3d 90 1f f9 3d
       0.08010029 -0.14017467 0.10727845 0.12164223
000060 16 cd 38 be d0 e6 e6 3b c9 6f 12 3e db 99 87 be
       -0.18046984 0.007046558 0.14300455 -0.2648457
000070 3c b4 ad 3d 1a d7 1d 3e 7d 2c 80 3e c9 1a 53 be
       0.084816426 0.15414086 0.25033942 -0.20615686
000080 0e 87 72 3e c5 45 e2 3d d4 a1 64 3e ad 1b 2f 3d
       0.23684332 0.11048464 0.22327358 0.042751003
000090 aa b1 73 bd e8 c8 6f be ea 26 b1 3d bc 40 6d 3e
       -0.059495606 -0.23416483 0.086500004 0.23169225
0000a0 14 a8 95 bd af 8b 95 3d 22 ff 43 be 89 a8 1f bd
       -0.07307449 0.07302033 -0.19140294 -0.038979087
0000b0 3a 17 42 bc 6d fe bf bd 7e 89 bb 3c 6a 7c 89 be
       -0.011846358 -0.093747 0.02289271 -0.26852733
0000c0 bb 35 3b be 9b 66 47 3d bb 67 97 be 5d 40 cd bd
       -0.18282215 0.048681837 -0.29571328 -0.10022042
0000d0 ea ef 59 3e 1c bf 2c 3e 9e b4 6c be 0c 0f 93 3d
       0.21282926 0.16869777 -0.23115775 0.07180604
0000e0 16 71 c6 3c 8d 83 52 be 6d 0d ee bd 8a a1 cd 3c
       0.024223845 -0.20557995 -0.116236545 0.025101442
0000f0 9f cd 46 be b8 13 36 3c b8 26 48 3e 0b 43 b9 bd
       -0.19414376 0.0111131 0.1954602 -0.090459906
000100 7b e0 0f 3e d8 37 9e 3d 27 50 48 3d f5 48 06 bd
       0.14050476 0.07725495 0.048904564 -0.03278442
000110 4a ed 33 3e 8d 4a 12 3e 0b 20 54 3d 91 b6 bc 3d
       0.17570987 0.14286251 0.05178837 0.09214509
000120 e0 52 68 bd cb 82 d7 bd f6 07 68 3e ba b8 45 3e
       -0.05671966 -0.10522994 0.22659287 0.19308749
000130 6e a9 84 bd ed a3 be 3c 6a 50 aa 3d 66 f1 41 bc
       -0.06477629 0.023271525 0.08316119 -0.011837339
000140 30 bc ea bd cc 48 2a 3e 6b c4 73 3e 7d 91 93 3e
       -0.11461675 0.16629332 0.23805396 0.28821936
000150 a3 c4 e9 bd 00 13 4e 3e f4 28 a3 bd 96 02 c6 be
       -0.114144586 0.20124435 -0.079667956 -0.38673848
000160 bb dd b3 3d d2 d1 9e be a3 96 21 3c 61 89 3e 3d
       0.08782526 -0.31019455 0.009862575 0.046517733
000170 2e 3d 8d 3b b3 69 49 3d b2 d4 c9 be 54 3f 4f 3e
       0.0043102717 0.04917307 -0.39420086 0.20239002
000180 c2 15 ba 3e f3 ce 32 be 20 d7 cc bd cd 1c c5 bc
       0.36344725 -0.17461757 -0.10001969 -0.024061585
000190 53 81 9a bd e0 57 a6 bd d7 16 bb 3c ad 64 c8 3d
       -0.07544198 -0.081222296 0.02283804 0.097848274
0001a0 b1 b6 3e bd fd b1 9c be 18 9c ac 3d 2d 22 92 be
       -0.046560947 -0.30604544 0.0842821 -0.285417
0001b0 82 90 11 be 90 96 8f bd 26 42 bc 3d 0d 80 29 3e
       -0.14215282 -0.070111394 0.09192304 0.16552754
0001c0 55 3e bf 3e e4 87 87 bd 3c 3a c5 3c 2b 81 64 bc
       0.37352243 -0.06617716 0.02407562 -0.013946812
0001d0 e8 ca f6 bd 20 bf a4 bd 43 00 f3 3e 3e 32 2d 3d
       -0.1205042 -0.08044267 0.47461137 0.042284243
0001e0 3c 36 7c 3d 50 e7 39 be 52 92 86 3d 65 ac c3 3d
       0.06157516 -0.18154645 0.06570877 0.09554366
0001f0 b3 be 81 be 62 39 95 bc 4f 68 be bd 6e 2c ec bd
       -0.25340804 -0.018215839 -0.09297239 -0.11531912
000200 b2 36 46 3e c8 4d 36 bd 01 20 0f 3e 2e 51 13 bd
       0.19356802 -0.04450777 0.13977052 -0.03596609
000210 eb 7f 17 be 41 3e 3d bd 60 b5 12 3e af 33 4e 3e
       -0.1479489 -0.046201948 0.14327002 0.20136903
000220 32 dd 88 3e 57 e8 a6 be 10 19 c3 ba 10 89 92 3e
       0.2673126 -0.32599136 -0.0014884789 0.28620195
000230 bf 0d 37 3e 62 4c 3d be b0 21 34 3e bc de 51 be
       0.17876337 -0.18486169 0.17590976 -0.20495123
000240 ce 06 3a 3a 36 d1 cb 3c cd db 1b 3e b5 66 b4 3c
       0.0007096351 0.024880033 0.15220566 0.02202163
000250 7f 4e fa bd 0c c2 29 3d d3 05 c7 bc c2 3a 33 bd
       -0.12222003 0.041444823 -0.02429477 -0.043757208
000260 38 9c 8f 3d 4c 53 08 be d4 75 bd bc 82 8d 81 3e
       0.07012218 -0.13313025 -0.023127474 0.25303274
000270 a7 37 ff 3c 6c db 4f be a1 21 7e be a8 c8 13 3e
       0.031154467 -0.20298547 -0.24817516 0.14432013
000280 4a fa 6d be c4 11 b1 bb 4d 49 0f be 95 09 91 bd
       -0.23240009 -0.005403729 -0.13992806 -0.07081906
000290 fa 99 60 3d 13 89 59 3e 2d 8f fc 3c bb 79 ff bd
       0.054834343 0.21243696 0.03082999 -0.1247439
0002a0 c1 8b 1b 3e 0f 51 37 be 1e 8b 44 3e 3f da a6 3d
       0.1519003 -0.17902015 0.19193694 0.08147096
0002b0 1e d0 29 3c b3 25 6c 3c 84 74 b8 bb 55 d3 01 3e
       0.01036456 0.014413285 -0.005629124 0.12678273
0002c0 42 63 c7 3d e9 f3 48 3b 84 5c 17 3e 0f 94 3e bd
       0.09735729 0.003066296 0.14781386 -0.04652792
0002d0 74 d3 8e bd 08 50 6c be c8 92 91 3e d1 6a ff ba
       -0.06973925 -0.23077404 0.28432298 -0.001948679
0002e0 d0 73 5b 3c 97 53 69 3e ee a7 41 3e 45 c0 79 3d
       0.013394311 0.22785793 0.18911716 0.06097438
0002f0 01 12 24 3e 14 94 b9 bd 68 e3 41 be 48 26 af 3d
       0.16022493 -0.09061447 -0.18934405 0.085522234
000300 3c 65 47 be 5d 7c d8 3b e9 08 a9 bd e6 75 8a bc
       -0.19472212 0.006606622 -0.082536526 -0.016901921
000310 b4 07 27 be 21 00 18 be b2 1f 36 bd 12 d0 91 bd
       -0.16311532 -0.14843799 -0.04446382 -0.071197644
000320 a2 76 40 bc 56 19 b3 3c a3 a4 2f be 59 b3 73 be
       -0.011747034 0.021862667 -0.17152648 -0.23798884
000330 bf dd 5d 3d 69 de cd 3c 1d 6a ab bb 61 50 d9 bc
       0.05416655 0.025130467 -0.0052311555 -0.026527585
000340 f6 86 1a 3d f3 d5 42 be 7f 45 38 be 82 03 5b be
       0.037726365 -0.19026928 -0.1799526 -0.21388057
000350 5d fa e0 3d 5e 47 87 be 53 98 58 bb 5d 07 b2 3e
       0.10985253 -0.26421636 -0.0033049777 0.34771243
000360 77 73 cf 3c 04 27 86 3e 49 c0 13 be 27 e2 1a be
       0.025323613 0.26201642 -0.1442882 -0.15125333
000370 cd 8d 3a 3d fa 91 f6 bd b0 0d 93 3e a7 d0 21 be
       0.045545388 -0.120395616 0.2872138 -0.15802251
000380 af 53 b0 be da 8d ff 3d a1 b0 8a 3e 2c 79 4d bd
       -0.34438846 0.12478228 0.27087882 -0.050164387
000390 ef 75 c9 3c 72 9c 8a 3d 6f d8 57 3d af 72 3c be
       0.024592368 0.06768121 0.05269664 -0.18403123
0003a0 ab 44 37 3d d5 ff a4 3e 15 d9 a8 bd 2c 9a 0d 3e
       0.04474322 0.32226434 -0.0824453 0.13828343
0003b0 0f 87 67 3e b5 50 94 3c 88 69 eb bd cb 80 bf bd
       0.22610115 0.01810489 -0.11494738 -0.09350737
0003c0 16 a6 b0 be e2 d6 e1 bc 2f 5f 93 3c 73 07 b2 3d
       -0.34501714 -0.027568284 0.017989723 0.08692827
0003d0 44 f3 25 3e 03 f2 56 bd dd e7 d3 be 79 d2 10 be
       0.1620608 -0.052476894 -0.41387835 -0.14142789
0003e0 f5 83 13 3d 8c 1c 93 3e 29 2d 1f be 83 f6 74 bd
       0.036014516 0.28732717 -0.15544571 -0.059805404
0003f0 7f 47 89 3e f5 28 c2 3d 62 64 4e 3d 53 28 66 3e
       0.2681236 0.09480468 0.0503887 0.2247632

fc2.bias f4 [2]
000000 f2 a4 a6 bd ea 4b ad 3d
       -0.081369296 0.08461745
