exercise10/algorithms/old_stuff/policies/minibatch_reinforce_policy.pth (torch, 6299 bytes, 4 tensors)

fc1.weight f4 [128, 4]
000000 3f f6 b4 be c6 25 79 3c 66 93 ae be 24 f0 d6 be
       -0.3534412 0.01520676 -0.3409683 -0.41980088
000010 7e 02 5a bd b3 31 91 3d 8d 81 89 3f 22 4d 9b 3e
       -0.053225033 0.070895575 1.0742661 0.30332285
000020 2c 7e 83 bd 49 84 41 3e f9 45 2c 3f a5 f2 92 be
       -0.0642055 0.18898119 0.6729427 -0.28700748
000030 82 75 83 be 99 fc 1c bd 43 5d 52 3f 74 f2 42 3f
       -0.2567559 -0.038326833 0.82173556 0.76151204
000040 5f fb 00 3f 8d 2a 1a 3e 51 fd b8 be 3d dd aa be
       0.5038356 0.15055294 -0.36130765 -0.33371916
000050 df 7c f0 be 9a b3 85 be 10 18 82 bf 16 53 23 bf
       -0.4697027 -0.26113588 -1.0163593 -0.63798654
000060 3d ad b6 be 12 bd 8e 3e 93 97 f1 3b 33 b3 f7 3d
       -0.35679045 0.27878624 0.0073728054 0.120947264
000070 09 2f 46 be 28 8c 0a 3f 57 f1 02 3f af 8c 5a be
       -0.1935388 0.5412011 0.51149505 -0.21342729
000080 73 bb cc 3e 1b 11 0d bb ba 95 0d be ad cb f7 3d
       0.39986762 -0.0021525088 -0.13826647 0.12099395
000090 4b 84 06 bf d8 86 24 be 34 0b 63 bf e3 d2 c8 be
       -0.52545613 -0.16067064 -0.8868897 -0.39223394
0000a0 00 27 b5 3e 55 96 c0 be 36 9e 67 3c 29 cd 18 be
       0.35381317 -0.37614694 0.0141368415 -0.14922012
0000b0 73 99 73 3c 15 8d 3a 3e 70 46 0e 3e 44 ed 44 3e
       0.014868128 0.18217881 0.13894057 0.19231135
0000c0 98 a9 b2 3e bd bd ce be 16 68 8c 3f b5 cc 21 3e
       0.34895015 -0.40379134 1.0969265 0.15800746
0000d0 18 cf fd bc 3e 05 cc 3e 4a 6f 92 3f d2 e1 2e 3f
       -0.030982539 0.3984775 1.1440213 0.68313324
0000e0 2d 8d b9 3e eb 51 38 3e 5a 16 1d bf cb 44 bd bc
       0.3624052 0.17999999 -0.6136223 -0.023104092
0000f0 11 34 d9 be 29 32 06 bf 86 32 0f bf b3 90 34 bf
       -0.42422536 -0.5242029 -0.5593647 -0.70533293
000100 f1 f4 52 bc 3a d2 f8 be 46 e2 32 3f b3 10 4a 3f
       -0.012875781 -0.4859789 0.69876516 0.7893173
000110 44 01 89 be 0c a8 85 be 51 fb 7d 3f f2 68 e4 3e
       -0.26758778 -0.26104772 0.99211603 0.44611317
000120 c3 f2 80 bd 5d 5a 59 3e ca d9 91 bc cc 0b 01 be
       -0.06296303 0.21225877 -0.017804045 -0.12602156
000130 f9 be b7 3e 75 42 f8 be 3b 9c 90 be dc b4 4d 3e
       0.35887888 -0.48488203 -0.28244194 0.20088524
000140 02 ad b4 3e 66 a6 d3 3e 46 a0 b6 3e 25 8c f0 3e
       0.35288244 0.4133789 0.35669154 0.46981922
000150 0c 5d 82 3e 39 cf d6 3d c9 15 c6 be cc b2 4e be
       0.25461614 0.10488743 -0.38688496 -0.20185393
000160 43 cf 6d bc 70 53 22 bf 38 36 e8 be 24 6a cc be
       -0.014514747 -0.63408566 -0.45353866 -0.3992473
000170 a9 18 d6 bc ff 9d 19 3d 5e a7 14 3e b7 fa 1e bd
       -0.026134806 0.037504192 0.1451697 -0.03881332
000180 eb 02 a4 3e d2 b1 8b 3e 40 7e 0c bf 7f bb 96 be
       0.32033476 0.27284104 -0.5488014 -0.29439923
000190 b8 f3 af 3d cd 17 22 3e b5 bb 87 3e 9b 9d 72 3e
       0.085914075 0.15829392 0.26510397 0.23692934
0001a0 17 5f 82 be 1d 9a e7 bc 5e cd ed bd 7f 69 dd 3d
       -0.25463173 -0.02827173 -0.11611436 0.108111374
0001b0 b7 3a ce 3e fd 62 69 bd fd f2 e5 be ad 36 a3 3e
       0.4027917 -0.05697917 -0.44911948 0.31877652
0001c0 f8 0d 95 3d 70 20 2d 3e 51 b9 5f bf d6 b9 24 bf
       0.07278055 0.16906905 -0.87392145 -0.64346063
0001d0 58 3e 72 3e 02 10 c5 3d 66 dd b7 3a 33 e5 15 be
       0.23656595 0.09622194 0.0014027774 -0.14638214
0001e0 63 b2 59 3e f8 f9 a9 3e b4 5b ee bd 26 1e 78 be
       0.21259455 0.33198524 -0.11638585 -0.2423025
0001f0 1d a6 f3 3d bc fc 48 3e 4a 0e 16 3f 1c 8e 4f bd
       0.11896918 0.1962766 0.58615553 -0.050672635
000200 09 16 60 3d b3 d8 94 be 4b 60 21 3f b4 52 d4 3e
       0.054708514 -0.29071578 0.63037556 0.41469347
000210 36 9e 82 be 06 c7 7e be f7 47 13 bf 7b 35 3d be
       -0.2551133 -0.24880609 -0.57531685 -0.18477432
000220 73 d3 15 be 2d a3 11 3f b5 94 65 3f 76 94 81 bc
       -0.14631443 0.5688961 0.89680034 -0.015817862
000230 7c 84 0b 3e f8 96 7c be 2f cc 00 3e 11 97 c2 3e
       0.13624758 -0.24666965 0.1257789 0.3800588
000240 74 85 fb bd 3b d7 20 3f 89 32 27 3e 26 8d 82 be
       -0.122813135 0.62828416 0.16327871 -0.25498313
000250 0d d5 a2 be 31 bd 07 3f ba 0b 6a 3f bc 58 b7 3e
       -0.3180317 0.5302306 0.91424143 0.35809886
000260 d8 9a 3f be fb 04 c4 bd b3 b9 13 bf a9 6b 22 bf
       -0.18711412 -0.095712624 -0.5770523 -0.63445526
000270 5b 09 5b be cf 2c 06 3f c4 71 00 be 82 7d 10 be
       -0.21390288 0.5241212 -0.12543398 -0.14110377
000280 a7 c4 0b 3d dc a9 a6 be 34 17 bf bd c8 62 20 3e
       0.03412309 -0.32551467 -0.093305975 0.15662682
000290 dd 22 76 bd 78 20 41 bd e9 17 26 3f 73 b1 42 3f
       -0.060091842 -0.047150105 0.64880234 0.76052016
0002a0 58 23 b0 3e de 95 06 bf 5f 06 28 3f 2d e9 19 3f
       0.34401965 -0.5257243 0.6563472 0.60121423
0002b0 4d 65 a3 3e a9 cc bb bd cd 72 3e 3f 2e 9c 31 3f
       0.31913224 -0.09169895 0.7439392 0.69378936
0002c0 95 ea a7 bd d8 78 e4 3e 2f a9 61 3f ef 7e bc be
       -0.0819904 0.44623446 0.8814878 -0.36815593
0002d0 bc 33 39 3e 00 ec b3 be 6c 17 4d be 40 06 c7 3e
       0.18086141 -0.3514099 -0.20028466 0.38871956
0002e0 ec 4f cd 3c 8d 7a 7a 3d 62 c0 46 3f 97 1e 6d 3e
       0.025062524 0.06115203 0.776373 0.231562
0002f0 65 0f 76 be 35 57 f0 3e ca 95 84 bd b2 f3 62 bd
       -0.2402931 0.46941534 -0.064738825 -0.055408187
000300 5f c3 97 bc 96 05 a6 3e 68 e9 08 3f 60 a5 fe 3d
       -0.018525777 0.32426137 0.5348115 0.124338865
000310 7e 63 ff 3c 74 24 c4 3e 04 10 2d 3f c2 63 f3 3d
       0.031175371 0.38309062 0.6760256 0.11884262
000320 2f 72 72 3d a7 06 83 3d 4b d9 ed 3e f1 5c 6e bd
       0.059190925 0.06397753 0.46454844 -0.058194105
000330 08 9d e1 be 2a 5d a9 3e be 05 80 bf f3 e7 d9 be
       -0.44065118 0.3307889 -1.0001752 -0.42559776
000340 76 c9 d5 be 5a 3c 81 3e ae 00 92 bf 7e 8c e1 be
       -0.41755265 0.25241357 -1.1406457 -0.440525
000350 19 51 89 be e6 94 f0 3e ed da d3 3e 54 66 ac 3e
       -0.26819685 0.469886 0.41377965 0.3367182
000360 fc 71 cf bd 32 80 c1 be b7 4b 8c bf 18 07 fc be
       -0.10129163 -0.37793118 -1.0960606 -0.49224162
000370 2f 97 2c 3e c2 bc 3c be eb c3 14 bf 46 cc 20 bf
       0.16854547 -0.1843138 -0.5811145 -0.62811697
000380 e1 5f 0f be 50 b9 a2 be 2e bd 3c 3f 83 6b 32 3d
       -0.14001419 -0.31782007 0.73726165 0.043559562
000390 7c 9b eb 3d 9e e8 b9 be 69 8c 42 3e a8 64 bf 3e
       0.11504266 -0.36310285 0.18998875 0.37381482
0003a0 92 e3 d5 bd a8 2e 7f 3d 14 72 87 be 32 9e cc bd
       -0.10443796 0.062300354 -0.26454222 -0.09991111
0003b0 54 51 ef 3e 8e 37 7b bd 6e 21 6a bf 73 31 f0 3d
       0.46741736 -0.061332278 -0.9145726 0.11728182
0003c0 15 79 b5 3e 69 ef 64 3e a2 1c e0 be fa e2 53 3e
       0.3544394 0.22356953 -0.43771845 0.20692053
0003d0 b6 1e 6e be 60 ed 0e 3e a6 04 d4 be 09 b4 fa bc
       -0.23253903 0.13957739 -0.41409796 -0.030603426
0003e0 4d 50 73 be 29 cc d2 3e 7b f6 1b 3f fe 18 e3 3e
       -0.23761101 0.41171387 0.60922974 0.44355005
0003f0 83 a2 d0 bd bb 78 c2 3e 37 6d cd 3e 9d dc e5 3e
       -0.10187247 0.37982735 0.40122387 0.44894877

fc1.bias f4 [128]
000000 a1 64 b0 3c b5 db 0d 3f ad fa 9f 3c 9c 9b 1c 3f
       0.021532359 0.5541337 0.019528711 0.6117494
000010 05 37 28 3d cb 34 a2 3d 90 5b ee be ad 1a a2 bd
       0.041068096 0.07920226 -0.46554232 -0.07915244
000020 5b ad 5e be 09 17 84 3c 52 65 70 be b4 9b 53 be
       -0.21745817 0.016124265 -0.2347615 -0.20664865
000030 69 68 08 3f da 9f 14 3f 88 17 b9 bd 9f e2 c3 3d
       0.5328432 0.58056414 -0.09037691 0.09564709
000040 81 e6 93 be 46 a7 c1 3e 13 11 ea be 9d c3 d4 be
       -0.28886798 0.37822932 -0.45716152 -0.4155549
000050 cc 02 05 3f 3c ac e3 3a 21 fa 40 be 5b d4 da be
       0.5195739 0.0017370055 -0.18845417 -0.4274014
000060 31 e4 12 3e 54 99 a3 be 22 be 1a bf 19 8d c6 be
       0.1434486 -0.31952918 -0.6044637 -0.38779524
000070 b9 4c ea 3e 15 0f dd be ff cb d2 be 39 de e1 3e
       0.4576166 -0.4317557 -0.41171262 0.44114855
000080 3f 98 f6 3e 40 8f 1b 3e 5b 59 b1 3c 99 06 58 be
       0.4816303 0.15191364 0.021649053 -0.21096267
000090 c9 0b 73 be a9 cc 80 3e 7f e4 3c 3e e5 e8 6c be
       -0.23734964 0.25156143 0.1844654 -0.23135717
0000a0 ba 54 08 bf 0d 43 db 3e ce 38 aa bc 9d 4e 0a 3f
       -0.5325428 0.42824593 -0.02077904 0.54026204
0000b0 bb 88 3b bd 05 d5 fe be 0c 2b 4a 3e e5 e7 92 be
       -0.045784693 -0.49771896 0.19742984 -0.28692546
0000c0 2a e9 85 3e b1 d3 ac 3e d3 9f 6e be c1 e4 ac 3e
       0.26154453 0.33755258 -0.23303156 0.33768275
0000d0 b0 80 96 3e 56 7b b1 3e 29 35 fc 3d 18 08 81 3e
       0.29395056 0.3466441 0.12314827 0.25201488
0000e0 2b 35 b9 be 9e 01 89 3e 05 62 6b be 29 3c 5b 3e
       -0.36173376 0.26759046 -0.2298661 0.21409668
0000f0 25 10 78 be 8f d7 c9 be f3 52 82 3e 01 c0 10 be
       -0.24224909 -0.3942227 0.2545391 -0.14135744
000100 98 32 d1 be 8c e8 e2 3e bd 02 c0 3e 55 d7 ca be
       -0.40858912 0.44318044 0.3750209 -0.3961741
000110 ad 1a ba be 15 df 36 3e 92 bb 91 3e 6f 21 ac 3e
       -0.36348477 0.17858537 0.28463417 0.33619258
000120 55 6d 22 3e 2d 2e 04 bf ce 04 ee 3e 2c e0 92 3e
       0.1586202 -0.5163296 0.4648804 0.28686655
000130 6b b4 61 3e 95 1a dd be 09 a3 97 be b6 ec 25 3e
       0.2204148 -0.43184343 -0.29616573 0.1620358
000140 37 a7 11 bd 8a 5b d5 be 07 02 d8 be 7b 75 a1 3e
       -0.03555986 -0.416714 -0.42189047 0.31534943
000150 c5 bd 02 bf 17 5f d2 3e d9 31 cf 3e b6 70 e7 3e
       -0.51070815 0.41088173 0.40467718 0.4520318
000160 16 1f 31 3e bf ec 91 3e 24 0f 28 3e 1e 8e cf be
       0.17297015 0.28500935 0.16412026 -0.40538114
000170 b1 5c c0 3d d1 e5 8f be 2e 37 73 bc f9 50 34 be
       0.093926795 -0.28105024 -0.014844699 -0.17609014
000180 48 d0 08 3e b2 ee 88 3e 62 21 f4 3d 19 ab ab be
       0.13360703 0.2674461 0.1192043 -0.33528975
000190 6e 72 41 be 92 41 55 3d bf 63 30 3c 5e e3 9a 3e
       -0.18891308 0.052064486 0.010765969 0.30251592
0001a0 3a 9b 51 bd 67 6e 87 bc 38 50 b8 3e bf a2 88 3e
       -0.051173426 -0.016532136 0.35998702 0.26686665
0001b0 03 f7 5d be 3b 99 2e be 79 1a c1 be b2 7d 69 be
       -0.21676259 -0.1705064 -0.3771551 -0.22801855
0001c0 e3 82 ac be f6 d6 a8 3e fd 73 03 bf 42 ea bb bc
       -0.3369361 0.32976502 -0.5134886 -0.022938851
0001d0 7d 29 01 bf 03 c7 f8 be 4d 09 00 bf d6 ff 8a be
       -0.5045393 -0.48589334 -0.5001419 -0.27148312
0001e0 86 11 0b bf ca 4a 0e 3d ff 06 3d 3e f4 12 0a 3f
       -0.54323614 0.034739293 0.184597 0.5393517
0001f0 de 6b 62 be d3 46 e6 be fc 2d d1 be 79 94 59 3e
       -0.2211146 -0.4497591 -0.40855396 0.21248044

fc2.weight f4 [2, 128]
000000 a8 56 b0 3d 1c 4b 69 be 86 02 78 be b8 33 57 be
       0.08610278 -0.22782558 -0.24219713 -0.21015823
000010 15 16 4d 3c 6c 2d 42 3e 5e 57 4d 3d 7a ab 86 bd
       0.012517472 0.1896264 0.050132148 -0.06575675
000020 fe 1d 08 3d 9e ac 2b 3e 61 b3 62 3d fd 74 f5 bb
       0.033231728 0.16765067 0.05534685 -0.0074907527
000030 f1 21 11 be b5 10 69 be f8 d4 bb 3d f0 c7 80 3e
       -0.14173104 -0.2276028 0.0917148 0.2515254
000040 b9 2a 8d be 83 bf dc bd 1f 5d 26 3d 87 1c b7 bc
       -0.27571657 -0.107787155 0.04061615 -0.02235247
000050 76 29 3f be ba 23 a0 3d 11 0b 5d 3e d0 59 ce bb
       -0.1866816 0.07819314 0.21586253 -0.0062973276
000060 99 eb a4 3d 98 fe 9b bc 9a 92 fc bc db 01 c7 3d
       0.08052749 -0.019042298 -0.030831624 0.09717151
000070 b1 4b 0e 3e 6b 48 85 bb 2b 72 c9 bd 4c 23 db bd
       0.13896061 -0.004067471 -0.09836229 -0.10700092
000080 ad 40 0f be 1a fe 76 3d 58 e9 16 be d4 a2 51 ba
       -0.13989516 0.060300924 -0.14737451 -0.00079969806
000090 28 72 d1 bd 42 d8 45 be de b9 12 3e 7f dc 54 bd
       -0.10226852 -0.19320777 0.14328715 -0.051968094
0000a0 bd 86 8c bc b2 88 57 be e4 f3 36 be d1 48 99 be
       -0.017154092 -0.21048239 -0.17866474 -0.29938367
0000b0 94 00 70 be cd 92 0f be 08 39 8b be 22 9f 6f 3a
       -0.2343772 -0.14020844 -0.2719195 0.0009140839
0000c0 bc 8e fd bd f9 2f 02 be e9 2c a9 bd 4b f2 fb 3d
       -0.1238074 -0.12713613 -0.08260519 0.12302073
0000d0 d6 3c 17 3e db f3 03 be be ec 6f 3e e3 3f 3c 3e
       0.14769301 -0.12885992 0.23430154 0.18383746
0000e0 8f c8 23 bc da 44 e8 bd 20 09 8a 3c d7 9e aa 3c
       -0.009996547 -0.113412574 0.016850054 0.020827694
0000f0 46 b0 97 3d 15 86 43 3d 2d 54 90 be bd da 2e bd
       0.07406668 0.047735292 -0.2818922 -0.042689074
000100 7e 99 b5 3c 23 27 42 be fb 6c 29 3e 65 0c a5 bc
       0.022167917 -0.18960242 0.16545479 -0.020147512
000110 a0 45 ea 3c e4 b9 3d 3e 00 f9 6c be 4d f0 50 3e
       0.028597653 0.18527943 -0.23141861 0.20404167
000120 43 4a 7b 3d 23 01 e8 3c 5e 20 d5 bd 62 9f 38 be
       0.06135012 0.028320855 -0.10406564 -0.1802955
000130 73 15 90 be 8a e6 8a 3d d7 90 b9 3d dd b9 2b 3e
       -0.28141364 0.06782253 0.09060829 0.1677012
000140 4d 69 16 3e 42 a7 15 3e fa 7b bb 3d a5 8f a5 3d
       0.14688607 0.14614585 0.09154506 0.08084039
000150 d8 5f 91 3d 29 af e5 bd f3 2f 46 be ad 8d 3f be
       0.07098359 -0.1121505 -0.19354229 -0.18706389
000160 33 c0 e5 bc fe 6c 33 3d 0e 82 92 bd 8d d8 7a bb
       -0.02804575 0.043805115 -0.07153712 -0.0038276047
000170 19 25 43 3e 32 0d a4 3d b1 83 27 3e 14 4b 1c bd
       0.1905712 0.08010329 0.1635883 -0.038157538
000180 74 cd 30 3e e5 2f 4b 3e 05 4c 97 3e c1 d0 5e 3d
       0.17265874 0.19842489 0.29550186 0.054398302
000190 d4 1d 23 3e 00 04 4a 3e 4d 03 3f 3e 5d 67 84 be
       0.15929347 0.19728088 0.18653603 -0.2586011
0001a0 d9 66 51 bd de 09 d1 bc 68 64 91 be 91 7a ef 3d
       -0.051123474 -0.0255174 -0.28396916 0.116932996
0001b0 e9 31 5b bd 26 6c b9 3d 0f 91 8a 3d fa 59 01 3d
       -0.053514395 0.09053831 0.06765949 0.03157995
0001c0 c1 82 2e 3d 4d 24 0a 3e 1c f3 9a 3b c9 9d e0 bd
       0.042605165 0.1349041 0.004728688 -0.10967595
0001d0 8e ff 18 bd 0b ee c7 3d 2a 80 8c 3c 74 13 e4 3d
       -0.03735309 0.097622 0.017150957 0.11136523
0001e0 07 c4 07 be 8a 68 75 3e 6f 23 8a 3e 45 dc 41 be
       -0.13258372 0.2396566 0.2698016 -0.18931682
0001f0 6d 82 01 bd 10 6b 10 3e 81 91 81 bd 0e 81 5b 3e
       -0.031618524 0.14103341 -0.06326581 0.21435949
000200 13 97 21 bd 3c ed 6c 3e 7f 55 26 3e fd f9 65 3e
       -0.039450716 0.23137373 0.16243552 0.22458644
000210 08 5d 03 be ba a4 96 be 58 8f 44 3b 98 fd 84 3d
       -0.12828457 -0.2942255 0.0029992666 0.06493682
000220 1b 20 0d be 1f 30 26 be 08 31 a0 bd 2d 05 3c bc
       -0.13781779 -0.16229294 -0.07821852 -0.011475843
000230 6b ad 57 3e d3 26 b8 3e 0d 1c e5 bc ee 8c 50 be
       0.21062247 0.3596712 -0.027967477 -0.2036626
000240 91 e0 1d 3e d7 a6 ba 3d 14 82 e4 bd 5b e6 9d 3d
       0.15417697 0.091138534 -0.11157623 0.077099524
000250 10 28 94 3d 70 a2 ea bd 36 79 12 be ab 2e d2 3d
       0.07234204 -0.11456764 -0.14304051 0.102628075
000260 0d 79 06 bb 87 f5 82 bd 1d 59 1c bd 65 e7 25 bd
       -0.002051893 -0.06394487 -0.038170923 -0.04050388
000270 38 ba 0b be 89 1d 26 bd 1e 4e bf 3d 3f 10 6a 3d
       -0.13645256 -0.04055551 0.093410715 0.0571444
000280 cf d5 44 3e 54 4f 4c bd d8 5f 0e 3e 96 e1 9d 3d
       0.19222187 -0.04988034 0.13903749 0.07709043
000290 fb 4e 7f 3d 12 b7 90 3e 19 95 52 be 71 78 81 3d
       0.06233118 0.28264672 -0.20564689 0.063218005
0002a0 4f b2 90 3d 75 9a 9a 3e 90 0b 2f 3e 8c 52 86 3e
       0.0706526 0.30195966 0.17094254 0.26234853
0002b0 a5 29 16 3e 7f 61 93 3d 45 7f 88 3e f9 89 e5 3b
       0.14664324 0.0719633 0.266596 0.007004973
0002c0 44 d9 b7 3d 79 bf 0c 3e 27 16 84 bd c6 18 bf bc
       0.08976987 0.13744916 -0.06449538 -0.023327243
0002d0 a8 1e 14 be cf d3 0b 3e f9 dc b6 be db 8f 3a be
       -0.1446482 0.13655017 -0.35715464 -0.18218939
0002e0 20 a9 08 3d 93 8c 0e bc a6 bb 54 3c a5 10 61 3c
       0.033364415 -0.008700508 0.012984192 0.0137368785
0002f0 6b 3c 46 bd c0 52 24 bd 46 4b 1f 3e 80 7f 8a 3d
       -0.048397463 -0.04011798 0.15556058 0.067626
000300 86 46 9c 3d d3 c1 f2 3d e3 15 e3 bd f5 15 a2 3d
       0.07630639 0.11853375 -0.11088159 0.07914344
000310 b9 dc 20 bd b0 6d 9a be 7b 73 11 3e ba 89 2f be
       -0.039272998 -0.3016181 0.14204209 -0.17142382
000320 1d 6f 0e be bc a3 af bd 6d be d8 3d bd 01 a2 3e
       -0.13909574 -0.08576152 0.10583196 0.3164195
000330 09 b6 95 3e a2 c3 c2 bc ca 23 e1 bd 2a f3 65 be
       0.29240444 -0.023774926 -0.10993154 -0.22456041
000340 17 11 47 be 70 fe f3 bd 11 63 00 be b3 c3 ee bd
       -0.19440113 -0.119137645 -0.12537791 -0.116584204
000350 cc 97 87 bd 88 2d 8c 3c f9 db a3 3e 7a 92 72 3e
       -0.0662075 0.017111555 0.32003763 0.23688689
000360 ac 03 d7 bc 99 99 36 bd 13 ad 26 3e db 8b dd bd
       -0.026246868 -0.044580076 0.1627696 -0.10817691
000370 ec bc ac be bf d2 db 3b a1 e2 af bd 6e be 04 bd
       -0.33737886 0.0067084725 -0.08588148 -0.03240817
000380 5e 86 3b be c3 7c 38 be a5 e4 34 be 53 4e 3e bd
       -0.18312976 -0.18016343 -0.17665346 -0.046461415
000390 bf 8b 82 bd 02 8f 30 be a6 7a 6d be d2 05 5c 3e
       -0.06374311 -0.17242053 -0.23191318 0.21486595
0003a0 ff 77 e0 bc 3c 85 ec bc ea d8 25 3e da 5e 9f 3c
       -0.027400969 -0.028872125 0.16196027 0.019454408
0003b0 fc cb e8 3d ae ea 6c bd b7 50 04 be d3 da be 3d
       0.11367032 -0.057840995 -0.12921415 0.09319081
0003c0 f6 d5 8f 3d a7 b9 8d be ae de a4 bc 85 ab bb 3a
       0.07023232 -0.27680704 -0.020125713 0.0014318085
0003d0 ce 87 bf 3d b0 c7 b1 3b af 24 8b bd ad b0 09 bc
       0.093520746 0.005425416 -0.06794106 -0.008403939
0003e0 78 d5 c4 3d e9 fc 94 be 44 e3 99 be ab 8b d8 3d
       0.096110284 -0.29099205 -0.30056202 0.105735146
0003f0 55 d8 69 bd 3b a1 55 bc 70 d4 dd 3d c4 53 d6 bd
       -0.057091076 -0.013038929 0.10831535 -0.10465196

fc2.bias f4 [2]
000000 4c 6a f2 bb 2c 62 de 3d
       -0.0073979255 0.108585685
