exercise10/algorithms/old_stuff/policies/reinforce_policy.pth (torch, 6135 bytes, 4 tensors)

fc1.weight f4 [128, 4]
0.06710295 -0.024232019 0.11273817 -0.081015304 -0.5142324 -0.16004433 0.081399344 0.24871512
-0.043492656 0.18658996 1.0973716 0.5749736 -0.32902148 0.017457476 -0.31684673 -0.71073
-0.38567072 -0.16432294 -0.44612342 0.036084596 -0.765135 -0.35033622 -0.046210803 0.27148247
-0.7448414 0.3660415 0.84040016 0.5351209 -0.39469996 -0.104183696 0.15383556 -0.30745256
-0.33824083 -0.010240253 -0.6412382 -0.563067 0.072097585 -0.17081699 -1.4813313 -0.34924388
-0.25972876 -0.29054874 0.47029594 0.40040174 0.13821995 -0.3363743 -0.16593884 0.06371554
0.22999182 0.35197788 0.18513496 0.002912665 0.055510942 -0.22166732 -1.5265677 -0.7782562
-0.031527236 0.101236634 -0.4351568 0.32068267 0.4767291 -0.5186034 -1.1711804 -0.4140109
-0.6506732 0.12744409 0.8454084 0.51234233 0.0066527035 0.8445195 0.58864695 0.52345365
-0.37621903 -0.25335 0.49845928 0.2759583 0.40302005 0.34620127 0.7653221 0.47024822
0.06535035 -0.1085518 0.28740573 -0.2241323 0.04730625 -0.083909035 -1.6361679 -0.7062065
-0.36499336 -0.18149659 -1.2661657 -0.49408117 -0.3314026 0.51865965 1.7867235 0.48668575
-0.30742666 -0.16405351 -0.057070524 0.3145972 -0.17771068 0.10974623 0.020590767 0.06980129
0.1976448 -0.13898231 -1.2118213 -0.22941284 0.0058699977 -0.047646184 -0.7365611 -0.35742468
-0.8715002 -0.13575907 -0.00727656 0.41066244 0.22268292 -0.2745502 0.019012848 -0.13884704
-0.4834195 0.13946219 0.30681422 0.7031466 -0.5372752 0.48636064 1.5025212 0.30657977
-0.59802467 0.09525368 0.05239655 0.6110079 0.37462476 -0.414496 -0.8520749 -0.7099375
-0.08734248 0.21768819 0.28606087 0.2993196 0.0014654174 -0.12475901 -1.2178643 -0.3731806
-0.13667756 -0.31546518 0.18849747 0.28288826 -0.3166174 0.2588726 -0.06390471 -0.03216469
-0.400272 -0.18174021 -0.3851869 0.092931345 -0.07490689 -0.042389017 -0.46246022 0.25393462
-0.39542267 0.41319716 -0.34172842 -0.07563588 -0.039382 -0.23624773 1.068479 1.2061968
-0.19146699 -0.010320727 0.4130379 0.6050941 0.00612907 -0.0773073 -1.8192328 -0.71196353
0.10719671 -0.2461957 -0.4534332 0.42457613 0.1719759 -0.8429946 0.30962732 0.35405245
-0.09997763 0.055137035 0.0981985 0.23134048 0.019575013 0.23474008 -0.17252503 0.013993371
-0.03435172 0.06823502 0.42830008 -0.32507628 -0.036618635 0.72493124 1.1499926 0.42573187
-0.19883637 -0.39811727 0.69844085 0.10472022 -0.18649691 0.30482587 0.2766151 -0.06964609
0.15480563 -0.007172477 -0.29594842 0.17919749 -0.26228157 -0.03392464 -0.9892905 -0.5084104
0.1343038 0.26733163 1.0623306 0.15191755 -0.31969717 0.32624623 0.1206377 -0.22573234
0.24239436 0.007922697 -1.2779194 -0.48027438 -0.0983494 -0.11863186 -0.29432777 -0.0029653443
0.029959798 0.2705484 1.0460906 0.7352985 0.23125848 -0.08264416 0.1086967 0.11124477
-0.49909404 0.67925864 1.6618427 0.4714916 -0.4222528 -0.11965963 -0.06688898 0.12980282
0.20153368 -0.03327654 -0.08508897 0.017103933 -0.091066375 0.1518042 0.22572039 0.0013038842
00000000: 456d 893d 3a82 c6bc 45e3 e63d 5aeb a5bd
00000010: bca4 03bf a9e2 23be b3b4 a63d 2daf 7e3e
00000020: 5b25 32bd 7011 3f3e ac76 8c3f 7831 133f
00000030: 8175 a8be fb02 8f3c bc39 a2be 67f2 35bf
00000040: a276 c5be 4644 28be 4a6a e4be 71cd 133d
00000050: e3df 43bf 455f b3be 8a47 3dbd c0ff 8a3e
00000060: edad 3ebf cb69 bb3e 7724 573f affd 083f
00000070: 1d16 cabe 435e d5bd 1287 1d3e 6c6a 9dbe
00000080: e72d adbe bcc6 27bc 3028 24bf 2925 10bf
00000090: e6a7 933d a6ea 2ebe 449c bdbf 18d0 b2be
000000a0: 2bfb 84be cec2 94be a1ca f03e 7501 cd3e
000000b0: 8889 0d3e 4139 acbe dfeb 29be 4b7d 823d
000000c0: fa82 6b3e 7236 b43e 0594 3d3e 69e2 3e3b
000000d0: 715f 633d c2fc 62be 9266 c3bf cc3b 47bf
000000e0: b422 01bd 2755 cf3d dfcc debe 8530 a43e
000000f0: d615 f43e 31c3 04bf 3de9 95bf 3df9 d3be
00000100: 8592 26bf b480 023e af6c 583f de28 033f
00000110: ecfe d93b 6e32 583f 91b1 163f 0f01 063f
00000120: c89f c0be 17b7 81be 0e36 ff3e 684a 8d3e
00000130: a558 ce3e 4b41 b13e 26ec 433f 60c4 f03e
00000140: 68d6 853d 6850 debd d826 933e f082 65be
00000150: 33c4 413d 80d8 abbd f36d d1bf f3c9 34bf
00000160: 69e0 babe 3eda 39be b811 a2bf 35f8 fcbe
00000170: 9aad a9be e1c6 043f 5bb3 e43f e02e f93e
00000180: 0767 9dbe a5fd 27be c8c2 69bd e212 a13e
00000190: caf9 35be a2c2 e03d f8ad a83c fbf3 8e3d
000001a0: 6663 4a3e 6151 0ebe f61c 9bbf 33eb 6abe
000001b0: 1c59 c03b a528 43bd 458f 3cbf 5e00 b7be
000001c0: a31a 5fbf 6d04 0bbe 3670 eebb 5942 d23e
000001d0: fe06 643e d891 8cbe d5c0 9b3c eb2d 0ebe
000001e0: c382 f7be 2dcf 0e3e c116 9d3e 6a01 343f
000001f0: de8a 09bf 4304 f93e 9d52 c03f 06f8 9c3e
00000200: 2518 19bf 5d14 c33d c49d 563d 046b 1c3f
00000210: d1ce bf3e d238 d4be 9521 5abf 77be 35bf
00000220: 9de0 b2bd a7e9 5e3e 9276 923e 6b40 993e
00000230: 4013 c03a a781 ffbd fae2 9bbf 8711 bfbe
00000240: 34f5 0bbe a784 a1be 7b05 413e bbd6 903e
00000250: ad1b a2be f38a 843e 79e0 82bd 1fbf 03bd
00000260: 74f0 ccbe 1b1a 3abe 3837 c5be ca52 be3d
00000270: c968 99bd 1ba0 2dbd 96c7 ecbe b803 823e
00000280: d774 cabe 948e d33e 07f7 aebe fce6 9abd
00000290: 054f 21bd edea 71be ebc3 883f a864 9a3f
000002a0: ec0f 44be 4418 29bc b479 d33e 72e7 1a3f
000002b0: 5ed6 c83b 4a53 9ebd 9fdc e8bf 3e43 36bf
000002c0: f389 db3d ba1a 7cbe 6528 e8be 0b62 d93e
000002d0: 731a 303e 7ece 57bf 7987 9e3e 5d46 b53e
000002e0: 12c1 ccbd 5fd7 613d 4c1c c93d 85e4 6c3e
000002f0: c75b a03c b45f 703e 67aa 30be 7444 653c
00000300: 64b4 0cbd cdbe 8b3d 264a db3e 6670 a6be
00000310: 6cfd 15bd 1895 393f f532 933f 87f9 d93e
00000320: c39b 4bbe 07d6 cbbe 05cd 323f 8e77 d63d
00000330: 0cf9 3ebe 2312 9c3e 7fa0 8d3e 9ca2 8ebd
00000340: 5e85 1e3e 1907 ebbb 8d86 97be 8c7f 373e
00000350: c549 86be 90f4 0abd 2442 7dbf 2f27 02bf
00000360: ef86 093e b1df 883e 73fa 873f 4690 1b3e
00000370: 59af a3be bf09 a73e e610 f73d 6126 67be
00000380: 3a36 783e 33ce 013c dd92 a3bf 86e6 f5be
00000390: 696b c9bd 43f5 f2bd 21b2 96be 3956 42bb
000003a0: 406e f53c 5285 8a3e 4ce6 853f 863c 3c3f
000003b0: 06cf 6c3e 5741 a9bd 609c de3d 4cd4 e33d
000003c0: 4189 ffbe e5e3 2d3f 43b7 d43f 5967 f13e
000003d0: 8531 d8be 1c10 f5bd 17fd 88bd 08eb 043e
000003e0: d85e 4e3e fb4c 08bd 2043 aebd 8c1d 8c3c
000003f0: 0281 babd 8f72 1b3e 3f23 673e 18e7 aa3a

fc1.bias f4 [128]
-0.39719996 -0.24565725 0.13781747 -0.21238619 -0.2968004 -0.51530886 0.22030185 -0.4745689
-0.2646924 0.05667773 -0.2255905 -0.7071081 -0.40385097 0.29569915 -0.5405955 0.30484962
0.12607469 0.29333225 -0.24251242 -0.041959155 -0.39163125 0.3667363 0.08348986 0.37798595
-0.31308934 -0.33457515 0.11005956 0.36132407 -0.21774833 -0.4972183 -0.06060846 0.32938763
0.009590031 0.3476167 -0.3174629 0.2051004 -0.35828006 -0.32289818 -0.34097353 -0.41615024
-0.554938 0.25051472 0.026356028 0.43024623 -0.7516303 -0.5012295 -0.5052644 -0.5130017
-0.33900985 0.31584543 -0.31171083 -0.61007893 -0.56291056 0.11252316 0.0980697 -0.46459168
0.32035378 -0.7965154 0.18676607 -0.5242448 0.4392566 -0.2065746 -0.3590393 -0.21842162
-0.24852535 -0.5884558 -0.39643532 0.2663782 -0.4156708 0.095119394 -0.67303914 0.3102417
-0.35238418 -0.6083632 -0.474994 -0.6165539 -0.44172958 -0.30984455 0.27427796 -0.3851384
0.080743305 -0.6062466 -0.20210244 0.27103308 -0.30360585 -0.46651724 -0.46406943 -0.39211488
-0.47943527 0.10147186 -0.18730544 0.28961214 0.31842116 -0.59096014 0.28763577 0.32542852
0.11906196 0.3542015 0.2837933 -0.6498226 -0.2351297 -0.30329606 -0.41432378 0.16123003
0.37107468 -0.16262455 -0.37441644 -0.59143806 -0.24980804 0.3852198 0.37386692 -0.6461962
-0.2668011 0.21007834 0.11917009 -0.18596186 -0.5918391 -0.38748038 -0.31648594 -0.37932533
0.28159764 -0.441773 -0.48821843 0.3769805 -0.139453 -0.5262516 -0.13301708 -0.53924745
00000000: cb5d cbbe 938d 7bbe 0620 0d3e c47b 59be
00000010: 39f6 97be 48eb 03bf cf96 613e b2fa f2be
00000020: c385 87be e826 683d 3201 67be 0905 35bf
00000030: 8ec5 cebe e165 973e 7764 0abf 4015 9c3e
00000040: b919 013e a52f 963e 2d55 78be 5ddd 2bbd
00000050: e483 c8be dcc4 bb3e bbfc aa3d 6087 c13e
00000060: 3f4d a0be 6f4d abbe e866 e13d 78ff b83e
00000070: 6bf9 5ebe 6693 febe 9440 78bd 7fa5 a83e
00000080: 811f 1d3c d1fa b13e 7f8a a2be d705 523e
00000090: 7c70 b7be e952 a5be 1594 aebe a511 d5be
000000a0: 6b10 0ebf 7743 803e 99e8 d73c 3c49 dc3e
000000b0: d86a 40bf 9450 00bf 0259 01bf 1454 03bf
000000c0: b392 adbe 7eb6 a13e 9098 9fbe 222e 1cbf
000000d0: e81a 10bf 8b72 e63d c4d8 c83d f6de edbe
000000e0: 6905 a43e 6fe8 4bbf 9b3f 3f3e e834 06bf
000000f0: 3ee6 e03e 4b88 53be 00d4 b7be eba9 5fbe
00000100: 6e7d 7ebe 0aa5 16bf 92f9 cabe b962 883e
00000110: ced2 d4be f5cd c23d 4b4c 2cbf 00d8 9e3e
00000120: b36b b4be b1bd 1bbf 6a32 f3be 7ad6 1dbf
00000130: 612a e2be f2a3 9ebe 296e 8c3e dc30 c5be
00000140: bf5c a53d fa32 1bbf f1f3 4ebe d9c4 8a3e
00000150: 3a72 9bbe 59db eebe 829a edbe 48c3 c8be
00000160: 8a78 f5be 7bd0 cf3d ffcc 3fbe 0b48 943e
00000170: 1908 a33e 2a49 17bf ff44 933e 919e a63e
00000180: c2d6 f33d e659 b53e 5b4d 913e c65a 26bf
00000190: d7c5 70be 9f49 9bbe 3f22 d4be 7c19 253e
000001a0: 80fd bd3e 0d87 26be 83b3 bfbe 7c68 17bf
000001b0: aecd 7fbe 883b c53e 7c6b bf3e 1d6d 25bf
000001c0: 279a 88be c71e 573e 730f f43d c96c 3ebe
000001d0: c482 17bf d463 c6be 720a a2be ee36 c2be
000001e0: 912d 903e 1230 e2be c4f7 f9be 9703 c13e
000001f0: c4cc 0ebe 6db8 06bf a135 08be 1f0c 0abf

fc2.weight f4 [2, 128]
0.018519834 -0.21558172 -0.122200795 -0.03665686 -0.106985144 -0.22409761 -0.33559117 -0.10881009
0.047257025 0.2710281 -0.20746344 -0.109927475 -0.15028057 0.3354321 0.03471829 0.41242445
-0.3183934 -0.37260175 -0.19514292 -0.26360995 -0.008959546 0.4225145 0.16242461 -0.35648143
-0.1285771 -0.07715883 0.21802753 0.1872764 -0.26678962 -0.15372674 -0.1775739 -0.64257276
-0.17237751 0.43198296 0.10562066 0.2935329 -0.17654772 -0.041875795 -0.08191651 0.06099586
0.11945316 -0.7440265 -0.09561924 0.34024778 0.0594594 -0.42680135 0.1276114 -0.02798761
0.016671112 -0.41043472 -0.17678805 -0.07630347 -0.037168212 0.103046924 -0.15077275 0.021627326
0.21639247 -0.20055346 -0.23740155 -0.07764248 -0.7330084 -0.10665998 -0.02037084 0.02318563
-0.15137683 -0.13126047 -0.029987771 -0.27035552 -0.2547823 -0.16408943 0.075165465 -0.20382953
-0.24970672 -0.077286854 0.08834322 -0.07707282 0.06269474 -0.29059246 -0.37355652 -0.048170496
-0.19705743 -0.14362179 -0.06530811 -0.2751151 -0.21698931 -0.050749395 0.09729488 0.022040129
-0.05015592 0.084355086 -0.14520244 0.27260482 -0.47399214 0.15082513 -0.41417807 0.31702176
0.15266675 -0.36617905 0.33521894 0.026249826 -0.08172967 -0.16129409 -0.23163028 -0.08061076
0.5588689 0.06373029 0.026145497 0.03918726 -0.10757455 -0.8855051 -0.5681179 -0.10346628
-0.18699099 0.3343901 0.15315565 -0.22064859 -0.0056792847 -0.17963788 -0.018966364 0.019389236
-0.36675462 -0.051670548 0.057347383 0.19099097 -0.21101415 -0.117988475 0.011145381 0.0073843366
-0.0006963947 0.16000919 0.18397759 -0.043554455 0.035193574 0.3124177 0.2870642 0.15053844
0.039721582 -0.17558248 0.18124145 0.06339655 0.00104009 -0.38664007 -0.13489205 -0.4849505
0.23384562 0.40367997 0.21303286 0.2513225 0.05227271 -0.4592924 -0.0485674 0.4043308
0.19003266 0.03219705 -0.25732172 -0.14425261 0.15277866 0.10468432 0.16629745 0.7013106
0.14063492 -0.36202228 -0.063430846 -0.28151864 0.13329509 0.024279205 0.23195401 0.060409002
-0.0078356005 0.8181685 -0.04405379 -0.337574 0.0495952 0.45294634 -0.0853448 0.030977497
-0.06438813 0.4272744 0.21215162 0.017939748 -0.00878571 -0.060676083 0.13894792 0.006188009
-0.27751353 0.13518463 0.22105268 0.015368651 0.67178005 0.047850456 0.07897917 0.05752758
0.04387662 0.124762155 -0.04156127 0.1960698 0.26964232 0.14698789 -0.06496507 0.28366143
0.16754206 0.08248392 -0.030265868 0.011288249 -0.1016861 0.18824801 0.3316872 0.16546573
0.24106544 0.23811889 0.015034313 0.34571835 0.104840666 0.107770875 -0.102772824 -0.06485382
0.090845264 -0.17058396 0.25055823 -0.37986282 0.37419948 0.0016254882 0.24886514 -0.3332552
-0.18708609 0.339428 -0.33549863 -0.029034557 0.13057196 0.14774853 0.17499794 0.23451121
-0.45911416 -0.025549967 0.10103257 -0.013337652 0.18104763 0.8256214 0.49809298 0.1869131
0.10048356 -0.29845256 -0.08573345 0.07238718 0.08282666 0.16694501 -0.0013871706 0.035572585
0.457103 0.086993456 0.010288984 -0.2371942 0.20135811 0.108493246 0.1453684 0.14328009
00000000: e8b6 973c 74c1 5cbe 6944 fabd 8125 16bd
00000010: 071b dbbd d879 65be 9bd2 abbe d3d7 debd
00000020: 9590 413d 32c4 8a3e 4c71 54be a821 e1bd
00000030: 26e3 19be c2bd ab3e c434 0e3d 4c29 d33e
00000040: 7604 a3be a8c5 bebe 8cd3 47be e2f7 86be
00000050: 0fcb 12bc d253 d83e a352 263e bc84 b6be
00000060: b7a9 03be 7305 9ebd 9c42 5f3e 62c5 3f3e
00000070: a698 88be 8b6a 1dbe efd5 35be a67f 24bf
00000080: bb83 30be df2c dd3e a54f d83d f249 963e
00000090: edc8 34be f485 2bbd d8c3 a7bd cbd6 793d
000000a0: dca3 f43d 8578 3ebf 05d4 c3bd f534 ae3e
000000b0: b38b 733d b585 dabe 90ac 023e 4646 e5bc
000000c0: db91 883c 8024 d2be ed07 35be fe44 9cbd
000000d0: b23d 18bd 440a d33d 2c64 1abe ca2b b13c
000000e0: fd95 5d3e e35d 4dbe 6419 73be 0503 9fbd
000000f0: 70a6 3bbf 8c70 dabd bfe0 a6bc caef bd3c
00000100: 8702 1bbe 2569 06be eaa8 f5bc 0a6c 8abe
00000110: d372 82be 0f07 28be 5af0 993d b0b8 50be
00000120: 1eb3 7fbe 9248 9ebd 4aed b43d 5bd8 9dbd
00000130: 1a66 803d 89c8 94be cd42 bfbe 6d4e 45bd
00000140: 6cc9 49be 9711 13be 42c0 85bd e3db 8cbe
00000150: 7232 5ebe 99de 4fbd 8a42 c73d 808d b43c
00000160: 4b70 4dbd 5cc2 ac3d f3af 14be dc92 8b3e
00000170: 19af f2be e771 1a3e 260f d4be ad50 a23e
00000180: ac54 1c3e d27b bbbe d1a1 ab3e e009 d73c
00000190: e361 a7bd 472a 25be 7d30 6dbe 4117 a5bd
000001a0: 0812 0f3f 0785 823d 152f d63c d282 203d
000001b0: 0c50 dcbd 76b0 62bf 2d70 11bf 21e6 d3bd
000001c0: 917a 3fbe 2e35 ab3e d6d4 1c3e b4f1 61be
000001d0: 4b19 babb fef2 37be 595f 9bbc 2dd6 9e3c
000001e0: 43c7 bbbe 7fa4 53bd 17e5 6a3d 2393 433e
000001f0: 1814 58be f1a3 f1bd 1e9b 363c 4ef8 f13b
00000200: 428e 36ba 73d9 233e 9f64 3c3e 2866 32bd
00000210: 2327 103d 36f5 9f3e 14fa 923e c026 1a3e
00000220: 19b3 223d e5cb 33be 5c97 393e 0dd6 813d
00000230: a153 883a b0f5 c5be 2421 0abe 6f4b f8be
00000240: 3a75 6f3e 24af ce3e 4925 5a3e 58ad 803e
00000250: e91b 563d 6028 ebbe 9cee 46bd 7204 cf3e
00000260: ec97 423e 0ee1 033d acbf 83be f5b6 13be
00000270: 0272 1c3e bc64 d63d e149 2a3e 1789 333f
00000280: 9a02 103e fc5a b9be 08e8 81bd 3623 90be
00000290: 827e 083e 2fe5 c63c 5a85 6d3e 6e6f 773d
000002a0: e460 00bc 7e73 513f bf71 34bd 80d6 acbe
000002b0: 5624 4b3d 95e8 e73e 41c9 aebd 85c4 fd3c
000002c0: eddd 83bd b6c3 da3e 463e 593e 61f6 923c
000002d0: f0f1 0fbc 7c87 78bd 5d48 0e3e c8c4 ca3b
000002e0: 4116 8ebe d76d 0a3e a25b 623e cbcc 7b3c
000002f0: c7f9 2b3f d7fe 433d d5bf a13d 0aa2 6b3d
00000300: f8b7 333d 4d83 ff3d 263c 2abd 86c6 483e
00000310: 8f0e 8a3e fe83 163e 680c 85bd 123c 913e
00000320: 2590 2b3e 54ed a83d 20f0 f7bc 59f2 383c
00000330: cd40 d0bd 16c4 403e e8d2 a93e d96f 293e
00000340: dcd9 763e 70d5 733e 7b52 763c ff01 b13e
00000350: b4b6 d63d fab6 dc3d 8f7a d2bd 14d2 84bd
00000360: 150d ba3d 90ad 2ebe 2b49 803e 617d c2be
00000370: 1397 bf3e 550e d53a 81d6 7e3e 6da0 aabe
00000380: 7f93 3fbe 82c9 ad3e 7ac6 abbe e1d9 edbc
00000390: a8b4 053e 644b 173e a932 333e b523 703e
000003a0: 0311 ebbe 2a4e d1bc 2aea ce3d 2b86 5abc
000003b0: 8d64 393e ed5b 533f 0b06 ff3e 2666 3f3e
000003c0: 53ca cd3d c6ce 98be 0595 afbd bb3f 943d
000003d0: 06a1 a93d a2f3 2a3e b9d1 b5ba 8fb4 113d
000003e0: 6809 ea3e a029 b23d 2093 283c 09e3 72be
000003f0: d230 4e3e b531 de3d 74db 143e 04b8 123e

fc2.bias f4 [2]
0.008260545 0.009690308
00000000: 3d57 073c 19c4 1e3c
